notebooks/.lr_find_5cfafd1f-c108-4e51-8ecb-0c0caecc6409.ckpt (torch, 9369 bytes, 3 tensors)

trend.trend_deltas f4 [1, 1, 11]
0	0xbdf7b1f3	-0.12094488
1	0xbdf88955	-0.12135569
2	0xbe8184db	-0.25296673
3	0xbf4e367c	-0.80551887
4	0xbc9c32cc	-0.01906719
5	0x3eac8555	0.33695474
6	0x3ed360a5	0.4128467
7	0xbf0172f5	-0.50566036
8	0x3f00b07e	0.50269306
9	0xbebf8810	-0.37408495
10	0xbcff6aea	-0.03117891

trend.trend_changepoints_t f4 [11]
0	0x00000000	0.0
1	0x3da7904a	0.08181818
2	0x3e27904a	0.16363636
3	0x3e7b5870	0.24545455
4	0x3ea7904a	0.3272727
5	0x3ed1745d	0.4090909
6	0x3efb5870	0.4909091
7	0x3f129e41	0.57272726
8	0x3f27904a	0.6545454
9	0x3f3c8254	0.73636365
10	0x3f51745d	0.8181818

ar_net.0.weight f4 [1, 4]
0	0x3c15d436	0.009144833
1	0xbe0c9454	-0.13728458
2	0x3f8452e3	1.0337795
3	0xbdfdf812	-0.12400831
